…
<p>è¦åŠ è½½æ¨¡å‹æƒé‡ï¼Œæ‚¨éœ€è¦å…ˆåˆ›å»ºç›¸åŒæ¨¡å‹çš„å®ä¾‹ï¼Œç„¶åä½¿ç”¨
load_state_dict() æ–¹æ³•åŠ è½½å‚æ•°</p>
<figure class="highlight python"><table><tr><td class="code"><pre><span class="line">model = models.vgg16() <span class="comment"># we do not specify pretrained=True, i.e. do not load default weights</span></span><br><span class="line">model.load_state_dict(torch.load(<span class="string">&#x27;model_weights.pth&#x27;</span>))</span><br><span class="line">model.<span class="built_in">eval</span>()</span><br></pre></td></tr></table></figure>
<pre><code>VGG(
  (features): Sequential(
    (0): Conv2d(3, 64, kernel_size=(3, 3), stride=(1, 1), padding=(1, 1))
    (1): ReLU(inplace=True)
    (2): Conv2d(64, 64, kernel_size=(3, 3), stride=(1, 1), padding=(1, 1))
    (3): ReLU(inplace=True)
    (4): MaxPool2d(kernel_size=2, stride=2, padding=0, dilation=1, ceil_mode=False)
    (5): Conv2d(64, 128, kernel_size=(3, 3), stride=(1, 1), padding=(1, 1))
    (6): ReLU(inplace=True)
    (7): Conv2d(128, 128, kernel_size=(3, 3), stride=(1, 1), padding=(1, 1))
    (8): ReLU(inplace=True)
    (9): MaxPool2d(kernel_size=2, stride=2, padding=0, dilation=1, ceil_mode=False)
    (10): Conv2d(128, 256, kernel_size=(3, 3), stride=(1, 1), padding=(1, 1))
    (11): ReLU(inplace=True)
    (12): Conv2d(256, 256, kernel_size=(3, 3), stride=(1, 1), padding=(1, 1))
    (13): ReLU(inplace=True)
    (14): Conv2d(256, 256, kernel_size=(3, 3), stride=(1, 1), padding=(1, 1))
    (15): ReLU(inplace=True)
    (16): MaxPool2d(kernel_size=2, stride=2, padding=0, dilation=1, ceil_mode=False)
    (17): Conv2d(256, 512, kernel_size=(3, 3), stride=(1, 1), padding=(1, 1))
    (18): ReLU(inplace=True)
    (19): Conv2d(512, 512, kernel_size=(3, 3), stride=(1, 1), padding=(1, 1))
    (20): ReLU(inplace=True)
    (21): Conv2d(512, 512, kernel_size=(3, 3), stride=(1, 1), padding=(1, 1))
    (22): ReLU(inplace=True)
    (23): MaxPool2d(kernel_size=2, stride=2, padding=0, dilation=1, ceil_mode=False)
    (24): Conv2d(512, 512, kernel_size=(3, 3), stride=(1, 1), padding=(1, 1))
    (25): ReLU(inplace=True)
    (26): Conv2d(512, 512, kernel_size=(3, 3), stride=(1, 1), padding=(1, 1))
    (27): ReLU(inplace=True)
    (28): Conv2d(512, 512, kernel_size=(3, 3), stride=(1, 1), padding=(1, 1))
    (29): ReLU(inplace=True)
    (30): MaxPool2d(kernel_size=2, stride=2, padding=0, dilation=1, ceil_mode=False)
  )
  (avgpool): AdaptiveAvgPool2d(output_size=(7, 7))
  (classifier): Sequential(
    (0): Linear(in_features=25088, out_features=4096, bias=True)
    (1): ReLU(inplace=True)
    (2): Dropout(p=0.5, inplace=False)
    (3): Linear(in_features=4096, out_features=4096, bias=True)
    (4): ReLU(inplace=True)
    (5): Dropout(p=0.5, inplace=False)
    (6): Linear(in_features=4096, out_features=1000, bias=True)
  )
)</code></pre>
<h4
id="æ³¨æ„ä¸€å®šè¦åœ¨é¢„æµ‹ä¹‹å‰è°ƒç”¨-model.eval-æ–¹æ³•ä»¥å°†-dropout-å’Œæ‰¹é‡å½’ä¸€åŒ–å±‚è®¾ç½®ä¸ºè¯„ä¼°æ¨¡å¼-ä¸è¿™æ ·åšä¼šäº§ç”Ÿä¸ä¸€è‡´çš„æ¨ç†ç»“æœ">æ³¨æ„ï¼šä¸€å®šè¦åœ¨é¢„æµ‹ä¹‹å‰è°ƒç”¨
model.eval() æ–¹æ³•ï¼Œä»¥å°† dropout å’Œæ‰¹é‡å½’ä¸€åŒ–å±‚è®¾ç½®ä¸ºè¯„ä¼°æ¨¡å¼ã€‚
ä¸è¿™æ ·åšä¼šäº§ç”Ÿä¸ä¸€è‡´çš„æ¨ç†ç»“æœã€‚</h4>
<p>åœ¨åŠ è½½æ¨¡å‹æƒé‡æ—¶ï¼Œæˆ‘ä»¬éœ€è¦å…ˆå®ä¾‹åŒ–æ¨¡å‹ç±»ï¼Œå› ä¸ºè¯¥ç±»å®šä¹‰äº†ç½‘ç»œçš„ç»“æ„ã€‚
…
